lstm_model.pth (torch, 655330 bytes, 30 tensors)

lstm.weight_ih_l0 f4 [256, 5]
00000000: e9aa 01bd 8762 08be f761 10bc 15c4 58be
00000010: 6f85 443d 99d0 1b3d d2e1 a1bd f075 9ebd
00000020: da05 3bbd a820 0ebe 559d c3bc 221b cc3b
00000030: 53b6 683d 1849 14bd 5ef2 803d 3be8 31bd
00000040: d7db 8fbc 094f 5e3d af19 1cbe d6fd 7cbd
00000050: eaaa 97bd ebae 30bd ddeb 043d df53 1bbe
00000060: 1eed 093e 4843 0c3e f822 a23d f364 1f3d
00000070: e035 243d 94d7 853d 5c11 51bc a4b4 a9bd
00000080: 7040 633b 10a1 20be b818 50bc 4500 ccbd
00000090: bb2d 8c3d 8aaf dc3d 36c5 c13d c057 c8bc
000000a0: 9f0f 903d b8de 07be b394 8b3d 71f3 d23a
000000b0: 365c 153c 96cb fbbd cac2 e1bd c703 b4bd
000000c0: d292 043d 5968 4bbe 2630 04be de0f 843d
000000d0: 75f5 6b3d e13c 82bd fec9 873c c483 ab3c
000000e0: ab40 7ebd 89bd f13d 7baa b73c 47f1 183e
000000f0: a2ae 0f3d f208 c33d 8272 533d f6e7 f8ba
00000100: df1d 853d 26b5 303e 7563 353d f2fc b7ba
00000110: 6078 5fbc b1ee dfbc e9f0 96be d912 e1bd
00000120: 3683 763e 0b73 14be 5b99 4ebe b152 173d
00000130: ed83 aa3d 6a2b 223e 5f44 d63d 9a97 eb3c
00000140: 3c8c ae3d dc10 b2bc 335e 153e d598 b5bc
00000150: f22b f33b f05b 6ebe 26c7 f7bd 61a3 9dbd
00000160: 8287 e93d 8c41 afbc 063d 9c3c 8ec7 61bc
00000170: 5590 023e 8638 033e 5490 043e b7ea 0e3c
00000180: 3d7a dcbd e76d 28be a8b6 043e 3e33 e1bd
00000190: 61da c93d 12e2 a43d 024b 3bbc 6f66 cbbb
000001a0: 78fe 9c3d 97c7 01be 3e7c b2bd b900 ffbc
000001b0: 93dc cf3c 6140 69bd a137 f43d 8a43 1cbe
000001c0: 04d3 45bd eba5 ecbd 2da5 6e3d 6d87 213d
000001d0: 167a 97bd ef15 a03d 2223 893d 2ba8 ba3d
000001e0: e040 593c 28b1 d43d 4a05 b3bc 5b27 dabc
000001f0: 96d4 d43d 6e30 b9bc afbc aebd 1997 8fbd
00000200: 9de7 243d 3f58 74be 693e b73c 026b 813d
00000210: a65b 38bd d2b2 8fbb e3c3 96bd 62a7 663e
00000220: 18ef d53d c44c 793d b87e a73d fa6c 08bb
00000230: 60fd 68bd c7a7 483d edfc d93d 5ead 46bd
00000240: 94ea 0bbd d29a 40bd 85ee 8dbd c778 15be
00000250: 4cad 773e a833 47bd 9fda 353e abef e03d
00000260: 6d2b 5dbd 7bbe 093b 552e ca3d 7b2f 653b
00000270: 7655 0c3e c1ed a03d c6bb 4cbd 7c2a 23bd
00000280: a184 d8bc 809b e73d 5e17 093c 36ea dd3c
00000290: b50e 413d 88ec 123e 67db ed3d b619 9dbd
000002a0: ff22 b23c b818 863d d42d 9a3d b865 513c
000002b0: f411 ae3c 75f8 8f3c eeeb b33d dd7c 7a3d
000002c0: 4efe c03d 7a06 babd 5bb7 573c 04e0 d93d
000002d0: b50d ad3d 0410 c03c 320d 973d 56e2 fcbd
000002e0: bd43 123d 2181 b6bd e46a 6bbd d47c c4bd
000002f0: 83aa 2a3d 0816 9fbc 73fb 1fbe cdcc 2b3e
00000300: e746 273e b819 473d d349 abbc 7b6c 8d3d
00000310: 1f3b 1e3e 62ca 38bc 7c49 15bc 8cfa ab3d
00000320: afbb 11be 5112 a9bd 10c3 42bd 6a05 473e
00000330: f85f 133e 104d d4bc eea0 b5bc 40a5 7c3b
00000340: 5414 753c 60f4 e43d c409 73bd 8673 2cbc
00000350: 21bb 903d 86a4 3dbd 6d30 5abd b3bf f63d
00000360: 2fb9 013e 95ae 613c c286 d73d c9f6 f7bd
00000370: 19ed 49bb 6649 eb3a 78e4 ae3d a1f9 b6bc
00000380: ae07 f1bc eb4c 5ebd d743 cc3c 55d3 c7bc
00000390: 39cc 42be 2bdc 31be 3887 16bd a07e 483d
000003a0: ef33 273c c8f8 38bd 6253 0a3b 8940 0abe
000003b0: f724 e23d bc5d b03d 9b6e f83c dd45 52bd
000003c0: 3848 dbbd 685b 2abe 6704 983d 6258 d5bd
000003d0: 6739 863d b411 70b8 c9f8 203d 399e 813d
000003e0: b8db 01be 060f 62bd 79a4 59bd f3d2 5d3d
000003f0: 1317 a93d 691d b2bc fac3 9f3d 5cbd 48be
-0.031657133 -0.13318835 -0.008812419 -0.2116855 0.047978815 0.03804073 -0.079044 -0.077373385
-0.045659877 -0.13879645 -0.023878733 0.0062288204 0.056814503 -0.03620252 0.06296228 -0.043434363
-0.017560882 0.054274593 -0.15244173 -0.061765514 -0.07405646 -0.043135565 0.0324515 -0.15168713
0.1346936 0.13697541 0.07916826 0.038914632 0.04009044 0.06535259 -0.012760486 -0.082864076
0.003467586 -0.1568644 -0.012701206 -0.09960989 0.0684466 0.10775669 0.09461443 -0.024455905
0.070342295 -0.13268554 0.068154715 0.001609428 0.009116223 -0.1229469 -0.11023481 -0.08789783
0.03236658 -0.19864024 -0.12908992 0.06448339 0.057607133 -0.06359268 0.01657581 0.020936854
-0.06207339 0.11803729 0.022420159 0.1493579 0.035078652 0.095231906 0.051622875 -0.0018990028
0.06499838 0.17256603 0.044284303 -0.0014037176 -0.0136395395 -0.027335497 -0.29480675 -0.10989923
0.2407349 -0.1449701 -0.20175688 0.036944095 0.08325944 0.15836874 0.104622595 0.028758813
0.08522841 -0.021736555 0.14586715 -0.022167603 0.00742101 -0.23277259 -0.120985314 -0.07697178
0.11402799 -0.02139356 0.019072067 -0.013780488 0.12750371 0.1281453 0.12945682 0.008722953
-0.107655026 -0.16448174 0.12960303 -0.10996102 0.098561056 0.08050932 -0.0114314575 -0.0062072794
0.076657236 -0.12673794 -0.087151036 -0.031128274 0.025373733 -0.056946162 0.11924673 -0.15260139
-0.048296943 -0.11555084 0.058262993 0.039435793 -0.07396333 0.078166835 0.06696154 0.09114107
0.013260096 0.103853524 -0.021853108 -0.026630094 0.1039211 -0.0226061 -0.08532082 -0.070112415
0.040259946 -0.23861788 0.022368627 0.06319238 -0.045009278 -0.0043853307 -0.07361581 0.22524789
0.10445994 0.060864225 0.081784666 -0.0020816908 -0.056882262 0.04898813 0.10643945 -0.04850518
-0.034159258 -0.04702265 -0.069302596 -0.14596854 0.24187201 -0.048633248 0.17759179 0.10983213
-0.053996492 0.0021018076 0.098721184 0.0034970928 0.13704476 0.07857848 -0.049983762 -0.039835438
-0.02643043 0.11308956 0.008367388 0.02708922 0.047133166 0.14348042 0.11614113 -0.076709196
0.021745203 0.065476835 0.07528272 0.012780599 0.021248795 0.017574528 0.087852344 0.061154235
0.09423505 -0.090832666 0.013166274 0.10638431 0.0844988 0.023445137 0.07375564 -0.12347858
0.03570913 -0.08911348 -0.057474986 -0.095941216 0.04166652 -0.019419685 -0.15623264 0.16777344
0.16335641 0.04860851 -0.020909226 0.06905457 0.1545224 -0.011278721 -0.009111758 0.083973974
-0.14231752 -0.08255447 -0.047549307 0.19435659 0.14392078 -0.025915653 -0.022171464 0.0038550645
0.01495846 0.11179423 -0.059335485 -0.01052559 0.07066942 -0.04629948 -0.05326884 0.120482825
0.12668298 0.013774534 0.1052375 -0.121076174 -0.0030811487 0.0017950952 0.08539671 -0.02233583
-0.029422607 -0.054272573 0.024934692 -0.024392763 -0.19023217 -0.17369144 -0.03675005 0.048948884
0.010205253 -0.04515913 0.002110683 -0.1350118 0.11042207 0.086116284 0.030326178 -0.051336158
-0.10707134 -0.16636431 0.07422715 -0.10417248 0.065539174 -5.7236946e-05 0.03929976 0.06329007
-0.12681472 -0.05519011 -0.05313537 0.054156255 0.08256354 -0.02174254 0.078010514 -0.19603485

lstm.weight_hh_l0 f4 [256, 64]
00000000: 88ba 96bb 0ee2 84bb 7e9a 4cbc cd95 1fbc
00000010: 91cd 7e3b 0ed4 e9ba 1086 d5bb b08a 4b3c
00000020: 030d df3a 0451 3abb 3ae0 aa3c ca91 59bc
00000030: 97d0 7e3b 1357 c4bb 1ae0 743a 69ba 89bc
00000040: b9f2 90bc a5c6 60bc 638e 82bc ee4d 38bc
00000050: 7eb8 453b a73e ac3b 0706 273c bf44 453b
00000060: b5d6 c0ba 9ddf ab3c e86e 4dbb 413a a6bb
00000070: 219c 36bc c03f 53bc 50a6 e33b 0881 6dba
00000080: c545 04bc b09d 80b9 46a8 59bc 4ea3 e63a
00000090: f7f3 96bc 72d4 943b 8064 edba 90d3 4c3a
000000a0: 47e2 c83b 7291 dd3b 8fc6 293c 9a04 bb3b
000000b0: 1694 dfbb e631 14bc 0f7a 5c3c 0fef 923b
000000c0: 30ea 533a a342 68bb b876 a3ba 0eea d6bb
000000d0: a0b9 74b8 c4b5 16bb f2a5 d83b 679f cabb
000000e0: f76c 19bb 0c85 963c 2ed1 c9bb 6e6d 1bba
000000f0: a65a 77ba 8f1a 39bb 5375 623c c029 fcbb
00000100: 702c 663c f3af 35bc eec3 a0bc 3f0b afbb
00000110: 64e0 563c 3401 5dbc f078 92bc 7c95 b23b
00000120: eec0 723b d40d 64ba 485f 5c3c c01e c8bc
00000130: fbca b13c a100 823a baeb 1a3b b3df 28bc
00000140: 95a2 86bc 9cb4 47bc 3383 4bbc 2bd5 863c
00000150: 71fd 733c 534b 1fbb 5501 0cbb 6437 cebb
00000160: 002d 3bbc 1d49 1c3c e67b 60bc 482b 3fbc
00000170: 39a6 dcbb 1e00 c9bb 4d59 fcbb 6354 853c
00000180: 83f4 28bb 8184 de3b e8b4 9cbc c084 303c
00000190: a83b f4bb 0f68 6bbc b9b5 42bc 99b9 b43c
000001a0: f41b 4abb 77fe 08ba f105 923c b4ea 1cbc
000001b0: 9f78 95bb ca07 293c 0787 6d3c a0c9 e43a
000001c0: 0038 e43b 3394 81bc 21f9 42bc 61f4 4dbc
000001d0: 8ad2 43bc a8e4 51bc 65e1 f6bb eb07 de3b
000001e0: 9476 5f3c 1c09 2abc c571 1f39 54f2 cd3c
000001f0: fa36 0cbb ab6d 4bbc c9b7 813c e2e3 3fbb
00000200: 1234 9c3c be6a 8a3c a231 06bc 1c8d 3abc
00000210: c710 a33c 4af5 823b d573 c4bc d52c fc3b
00000220: 8224 b6bb 2096 aab9 b3c2 c83c 9dd7 3bbb
00000230: 20e2 a83c 27f9 af3b 565c 493a eb7d a8bc
00000240: f3f6 c13c b61e 28bc 0833 c5bb 928d 133d
00000250: e687 6f3c ea9a f9bb 5c3e 943b 96c3 dd3a
00000260: f182 bfbc b9e3 d3bc d976 a3bc 741c cc3b
00000270: 16bc 303c 6fca 353b 52b8 f0bb cdbb 8a3c
00000280: 5d2b 123c d457 163b 09d7 183c 4f6a 793c
00000290: 3d1c afbb 869c e6bc 80dc 5bbc e7f1 4c3c
000002a0: 7c95 ffb9 c97d 59ba 86b9 623c 810c bbbb
000002b0: bfd5 67bc 3b28 113b 1a6a 943c 5e2f 89bb
000002c0: 8993 a63c a7ee d0bc 4189 93bc d3cd 1cbc
000002d0: e95c 35b9 31bc bbbc bbc1 b0bc e412 743b
000002e0: 0625 85bc 51d6 393b 7b4f 523c edc5 a63c
000002f0: e007 9fb8 c816 a4b9 d9e5 60bc 60ba 193c
00000300: 1618 943c 7ed4 013c 2d97 80bc cee4 11bc
00000310: 8bd9 ab3c a647 3f3b fe90 babc e182 7439
00000320: bb28 9e3a b910 39bc 44e0 ce3c 5e27 c4bb
00000330: ee20 943c 53d6 1aba ebe7 e93b 29be 39bc
00000340: 67cf c93b b5b7 123c 3300 14bc 7796 8e3c
00000350: 1c8d 0f3c a1ea 18bb 0046 00b8 6599 13ba
00000360: 8269 9bbc 0250 a83b 3512 31bc 38a7 7f3b
00000370: 9b3c 093c 9903 fe3a aa09 603b 9d7a 8c3c
00000380: b7e7 3a3c c289 f93a a85d 473b 073b bc3b
00000390: d46c 4abb f248 d2bc eca5 94bb 3489 4f3b
000003a0: e804 42bc d91f 81bb 9f19 6f3c f213 32bb
000003b0: e417 2abc f874 bb3c 3dbd 463c d3b2 ba3b
000003c0: bc7f 773c 81d5 b5bc 0b17 62bc 0513 653b
000003d0: f6ed eebb 8d9f 8fbc 932a 2aba dd1d 463c
000003e0: 7a4c 85ba 4828 c8bb 8ee8 ce3b d023 783c
000003f0: 4017 ceba fa27 21bb da78 dc3a 27a8 eb3b
-0.004599873 -0.004055268 -0.012488006 -0.009740305 0.0038879851 -0.0017839686 -0.0065162256 0.012423202
0.0017017428 -0.0028429637 0.020858873 -0.013279388 0.0038881653 -0.0059918254 0.0009341255 -0.01681252
-0.017693864 -0.013719236 -0.015937036 -0.011249049 0.003016978 0.005256492 0.010194308 0.003010079
-0.0014712425 0.02098065 -0.0031346623 -0.0050728624 -0.0111456225 -0.012893617 0.006947316 -0.00090600597
-0.008073275 -0.0002453155 -0.013284748 0.0017596276 -0.018426878 0.004541927 -0.0018111616 0.00078135077
0.00613049 0.006761723 0.010362281 0.0057073357 -0.006823073 -0.0090451 0.013456835 0.0044840644
0.0008083908 -0.003544011 -0.0012471294 -0.006558663 -5.834701e-05 -0.0022996524 0.006611579 -0.006183553
-0.0023410895 0.018373989 -0.0061589694 -0.0005929087 -0.000943581 -0.002824459 0.013821918 -0.0076954067
0.014048681 -0.011089313 -0.019624677 -0.005341917 0.013115022 -0.013489056 -0.017879933 0.005449949
0.0037041265 -0.00086995703 0.013450451 -0.024428725 0.021703234 0.00099184 0.002363904 -0.01030724
-0.016434947 -0.012189057 -0.012421417 0.016459068 0.014891968 -0.0024306371 -0.0021363099 -0.006293224
-0.011424303 0.009538916 -0.013701415 -0.011668034 -0.0067336825 -0.006134047 -0.007701075 0.01627559
-0.0025780506 0.006790698 -0.019129232 0.010773838 -0.0074534006 -0.014368071 -0.011884146 0.022061156
-0.0030839415 -0.00052259065 0.017825099 -0.009577442 -0.0045614983 0.010316798 0.014497525 0.0017455108
0.0069646835 -0.015817737 -0.011900217 -0.0125704715 -0.011952052 -0.012810864 -0.0075341933 0.0067758462
0.013639111 -0.010378148 0.00015205804 0.025139965 -0.0021395073 -0.012416284 0.015834706 -0.0029280116
0.019067798 0.016896602 -0.008190544 -0.011386182 0.019905461 0.003996526 -0.023981014 0.007695774
-0.0055585513 -0.0003253678 0.024506902 -0.002866245 0.020615637 0.0053702774 0.00076813006 -0.020567855
0.023677325 -0.010261228 -0.0060180463 0.036023684 0.014619803 -0.007617344 0.0045240354 0.0016919251
-0.023377867 -0.025865423 -0.019954132 0.006228978 0.010787031 0.0027739068 -0.0073461914 0.016935254
0.008921471 0.0022940533 0.009328612 0.0152231 -0.0053439424 -0.028150808 -0.0134192705 0.012508846
-0.00048748765 -0.00082966365 0.013838178 -0.0057082777 -0.014150082 0.0022149223 0.018117 -0.004186555
0.020334022 -0.025504423 -0.018009784 -0.009570557 -0.00017296117 -0.022916885 -0.021576753 0.0037242705
-0.016253006 0.0028356502 0.012836332 0.02035805 -7.583178e-05 -0.0003129749 -0.013726675 0.009382814
0.018077891 0.007924197 -0.015697086 -0.008904649 0.020977756 0.0029186993 -0.022774216 0.0002331841
0.0012066582 -0.011295491 0.025253423 -0.0059861382 0.018082108 -0.00059065706 0.0071382425 -0.011336842
0.0061587575 0.008954932 -0.009033251 0.017405732 0.00876167 -0.002333321 -3.058277e-05 -0.00056304625
-0.018971208 0.005136491 -0.010807564 0.0039009582 0.008376266 0.0019379734 0.0034185448 0.01714831
0.011407784 0.0019038247 0.0030420814 0.0057443413 -0.003088762 -0.025669549 -0.004536381 0.0031667473
-0.01184199 -0.003940564 0.014593511 -0.0027172533 -0.0103816725 0.022882923 0.012130079 0.005697587
0.015106138 -0.022196533 -0.013799439 0.0034953963 -0.0072915507 -0.017532134 -0.00064913294 0.012092081
-0.0010169887 -0.0061083175 0.006314344 0.015145257 -0.0015723482 -0.0024590478 0.0016820685 0.007191676

lstm.bias_ih_l0 f4 [256]
00000000: abb3 0b3d 5364 dbbc e723 003e c361 593d
00000010: c078 1dbd 7baf eabb 99bf 103d 9aef 843c
00000020: dc12 1e3e 354a b73b 06f0 203e 8e28 663d
00000030: 3616 27be d6b0 633c 4079 71bd 3fc5 6c3d
00000040: 411a 663e 678d 553e 571f 523d 65c1 12bc
00000050: 83b4 38bd 4bf1 503c 4e70 b13d 07ff b63d
00000060: 513a e33d 44c8 883e f3f5 ed3d dc9c bdbd
00000070: db21 a33d c5b9 2e3e ca48 823d e5dc c23d
00000080: 369e 56bd 0558 a13c e6af f43d e60d 123c
00000090: 9af7 303d 09d3 043c 9d66 44bc 8770 5fbd
000000a0: 42a9 c63d 2c99 803d 84c5 9bba 8257 bd3d
000000b0: 6b2b 9f3d 1676 873d 96fb b83d de42 aa3d
000000c0: 373d 353d b6c6 ea3c 2bbb 0bbd 8095 cfbc
000000d0: fae2 8a3d 6219 ee3d 59f1 353d 63d1 243e
000000e0: e260 18bd d5da c0bc d049 1b3c e178 01bd
000000f0: 1d81 ef3c 6280 09bd fa9d fe3d 3b16 de3d
00000100: 49b5 5bbe bd5d 0abd 7b60 48be 11b7 68be
00000110: d282 37be f795 70be e310 13be 0cbd 88be
00000120: 4e03 89be 6a4d 2fbe d830 76be 7ae1 76be
00000130: 0441 09be 78f9 22be 1a7b 59be d54d 59be
00000140: fe5b 85be c1df 4ebe bdfe 46be d294 dcbd
00000150: 8427 21be a6d0 2ebe 7321 58be d555 1ebe
00000160: 44e6 53be d426 aebe d937 57be 1ee0 6cbe
00000170: b24f 49be d228 9bbe 11ee 84be 0804 54be
00000180: f4f0 1abe 9882 57be 29b4 69be 33a7 0ebe
00000190: b392 5bbe 48da 36be c6f5 4ebe e126 39be
000001a0: b635 27be 828c 3dbe 37dd 64be 45ee 54be
000001b0: bc38 1fbe 8660 cabd 520a 5cbe 0408 68be
000001c0: 10d7 3bbe 0979 4fbe f021 30be fc46 4ebe
000001d0: 1978 73be 6f7a 87be 82ca 33be c238 7abe
000001e0: 58f5 4dbe f189 87be 6eaa 37be f8ba 6cbe
000001f0: 63cc 57be df39 17be 7ec4 40be 3ec5 3fbe
00000200: 9cca 91bd d93a d33d 52f9 533d eb96 9cbd
00000210: be78 7cbd ea8b d3bd 51a3 52bd 9cdf 863d
00000220: 8916 e7bc bb36 30bd 3326 493d 968d d4bc
00000230: b333 fa3c 8706 0fbd a1ab 193d 2392 383b
00000240: f777 4cbd 72b5 8abd 1bd9 e4bc c074 aabc
00000250: 11f8 9d3c 481f 3d3d 7cd2 abbb 9a54 a0bd
00000260: 3aa1 5d3d 19e2 aa3d 112f d83d e9eb debd
00000270: 8090 eebc 3f9b 05be 22c6 b9bd 75f2 a53d
00000280: f0b8 fdbc d81d 253d 10d0 34bd 4930 d4bc
00000290: 3b93 a53d 44d1 3239 0c4c a4bd 0705 cd3d
000002a0: e6a4 44bc 3805 62bc b2b3 2f3d 3810 a1bc
000002b0: 5c5d 87bc bbef 12bd 7b16 6c3d 2711 e6bc
000002c0: c84f c53d 4cad 483c c1b6 f5bc 48e5 f1bc
000002d0: ced5 893d 537b 2e3d f933 c03d 9dbf 1a3c
000002e0: 652b 38bc db3e 84bb cf10 473c a06d cebc
000002f0: a14f e23c 8478 6a3a 07b6 4fbd 168b c53c
00000300: f51d 2f3d 2610 863d 7fb7 053e 5a4d 243d
00000310: 79b2 4cbb d031 073d 7d63 913d 9322 1b3e
00000320: 58a5 573e 2fba 48bd 1c48 d93d 5bcf d63d
00000330: dbe4 41be ac5a 78bd 0fa2 743d d551 593d
00000340: 413b 673e 9464 b03d 11c7 a63c 0151 cf3d
00000350: 7330 09be 1c99 193d adf7 ad3d 326e 073d
00000360: 5b54 f739 ca25 853e 61ea 133e 1ec5 ccbc
00000370: 1204 bd3d 8340 6d3e db00 9c3d 55a8 9f3d
00000380: 45c5 983d 3b85 363d 9d53 363e 2ca6 93bc
00000390: d6f1 c63d faec 97bb 9de9 ab3d 5ff0 693d
000003a0: 1768 db3c 2d0c d6bc 275b 193d b268 203d
000003b0: fe41 053d 9815 ac3d 1e1e d83d 7d27 933b
000003c0: 1ff2 503d 8816 0abd 1b62 55bc e5ba 743c
000003d0: 33f2 093e 5424 803d 0a52 de3d 37c9 623e
000003e0: 7942 2e3d 1a7a a5bc 7d20 da3d e75a 043c
000003f0: c426 843d 6dfb 01be 7a87 dd3d 00a8 fc3d
0.03410689 -0.026781237 0.12513696 0.05307175 -0.038445234 -0.007162032 0.03533897 0.016227532
0.15436882 0.005593563 0.15716562 0.05619102 -0.16317067 0.013897141 -0.058953524 0.057805296
0.22470953 0.20854722 0.05129942 -0.008957242 -0.045094024 0.012752841 0.086639985 0.08935361
0.11095107 0.2671529 0.11619177 -0.09258434 0.07965442 0.17063053 0.0636154 0.095147885
-0.052396975 0.019695291 0.119476125 0.008914446 0.04320488 0.008106955 -0.011987356 -0.054550674
0.09700252 0.06279215 -0.0011884426 0.092452064 0.07771953 0.0661432 0.09032361 0.08313535
0.044247832 0.028659206 -0.034114044 -0.025339842 0.067815736 0.11625935 0.04441962 0.160955
-0.03720177 -0.023541847 0.0094780475 -0.03160942 0.02923637 -0.0335697 0.124324754 0.10844084
-0.21455874 -0.033780802 -0.19568054 -0.22726084 -0.17920998 -0.23494707 -0.1436191 -0.2670673
-0.26760334 -0.17119375 -0.2404207 -0.2410945 -0.13403708 -0.15915477 -0.21238366 -0.21221097
-0.26046747 -0.20202543 -0.19433112 -0.10770573 -0.1573773 -0.1707178 -0.2110651 -0.1546243
-0.20693308 -0.34013999 -0.21017398 -0.23132369 -0.19659308 -0.3030458 -0.2596288 -0.20704663
-0.15130979 -0.21045911 -0.22822632 -0.13930969 -0.2144268 -0.17856705 -0.20210943 -0.18081237
-0.16329083 -0.1851063 -0.22350012 -0.20794018 -0.15548986 -0.09881692 -0.21488312 -0.22659308
-0.18343759 -0.20261015 -0.17200446 -0.20144266 -0.23776282 -0.26460597 -0.1755772 -0.24435714
-0.20113122 -0.26472428 -0.17936108 -0.23118198 -0.21074061 -0.1476817 -0.18824956 -0.18727586
-0.07118723 0.10313959 0.051751442 -0.07645973 -0.061638586 -0.10329421 -0.051425282 0.06585619
-0.028208988 -0.043020945 0.049108695 -0.02594642 0.03054223 -0.034918334 0.037517194 0.0028163276
-0.049919095 -0.06772889 -0.027935555 -0.020807624 0.019283326 0.04617241 -0.0052435976 -0.078286365
0.054108836 0.08343906 0.10555852 -0.1088484 -0.029121637 -0.13047503 -0.09070994 0.08102886
-0.030971974 0.040311664 -0.044143736 -0.02590193 0.080847226 0.0001705336 -0.08022317 0.100107245
-0.0120022055 -0.01379519 0.04289598 -0.019661054 -0.01652401 -0.035873156 0.057638627 -0.02808435
0.09634358 0.012248348 -0.02999437 -0.029528275 0.06730233 0.04259808 0.09384913 0.009445098
-0.011240815 -0.0040358133 0.012150004 -0.025198758 0.02762586 0.000894435 -0.050710704 0.024114173
0.04275318 0.06546049 0.1305828 0.04011283 -0.0031234308 0.03300649 0.07099054 0.15149908
0.21059167 -0.049005684 0.10609457 0.10488769 -0.18934958 -0.060633346 0.059724864 0.053056557
0.22581197 0.08612934 0.020358594 0.10122872 -0.13397388 0.037499532 0.08494506 0.033064075
0.0004717436 0.26005393 0.14444877 -0.024996337 0.09229292 0.2316914 0.07617351 0.07795779
0.07459501 0.044560652 0.17805333 -0.018023573 0.09714095 -0.004636404 0.083941676 0.057114
0.026783032 -0.026128853 0.037440445 0.039162345 0.03253364 0.08402556 0.105526194 0.0044907914
0.051012155 -0.033712894 -0.013023878 0.014937137 0.13471298 0.06256929 0.108554915 0.2214707
0.042543862 -0.020199824 0.10650728 0.008078313 0.064527065 -0.12693568 0.10816856 0.12336731

lstm.bias_hh_l0 f4 [256]
00000000: f158 a43c 5ee0 043d 0f69 da3d 346c 043c
00000010: eeee fb3c 10bc b03c feba c3bc d6a2 183e
00000020: 6a04 eb3d 75a7 693d dab0 fe3d a751 0f3e
00000030: 7a1f d2bd b2df dcbc 0ba0 cfbd 7aeb 453d
00000040: 7b4e 283e 5677 c23d ee7f 8d3d 63e5 5a3d
00000050: ddba bebd 980c d3bb a884 8c3d 66cf 2ebd
00000060: 028a bc3d 9566 4f3e cc07 b13d 6d4e 353d
00000070: fcb7 893d 22d8 4e3e 2e48 f4bb 8606 fd3d
00000080: 919b fe3c 39e7 883c 90c1 383e ab04 84bd
00000090: abac f53d 7972 0f3d 3c05 703d 9b6c 1e3d
000000a0: ba69 c73c e58b a23d b625 bf3d 23cf 533d
000000b0: aa16 d43d 9c03 113d 9662 043e 1026 afba
000000c0: 07b6 043d c1da c6bb 02a7 c33d 5cab cd3d
000000d0: cea1 e23c bee4 df3d 4b9c 8c3d 3655 de3d
000000e0: 9979 cabd cf78 ea3c 46c1 67bc 2ba9 e2bd
000000f0: a7f0 14bd 8b4d 87bd d187 423d 0978 963d
00000100: f5b5 66be 2359 d73c 4b3c 3abe ffb1 3fbe
00000110: 4345 1fbe 8cd4 61be f69f 19be e074 79be
00000120: a464 8cbe 00c0 50be f4e6 9cbe dc63 72be
00000130: e46e 2cbe b9ba 41be e04d 65be bbcd 85be
00000140: dc93 95be 699e 6fbe 52e2 5dbe 5218 7fbd
00000150: c074 14be 9903 18be 627c 66be 3229 52be
00000160: e639 63be 0e03 a8be 9043 5abe fa60 41be
00000170: 06e3 54be 3db4 98be 01df 58be a0ec 5cbe
00000180: 0320 27be 68a8 2fbe 4794 68be e21b 09be
00000190: 0cda 53be 7a71 e4bd 45e6 4ebe 04df 4cbe
000001a0: e509 17be cbcb 27be 7ff6 6bbe 43f0 66be
000001b0: 7e80 60be 1528 ffbd 03ba 56be b590 6dbe
000001c0: 26b2 37be 1b0b 50be cf51 14be 0bdd 2dbe
000001d0: 7fdc 80be e8f0 82be 8465 46be e02e 61be
000001e0: 4833 6abe ce86 76be 140f 2fbe 7a47 67be
000001f0: 0eea 42be 8760 69be ebd1 30be e5e0 36be
00000200: 6c6c f13d 8cd3 bb3a 8ec4 88bd b87e ad3d
00000210: 41a1 653d e02d 1b3d a2ac 443d f068 43bc
00000220: 7925 1c3d 3f7e 3dbd f4a7 85bc 8f8c 633c
00000230: a9ca 8a3c 6cf4 3a3d 60a2 4d3d 237c 363d
00000240: f9b4 d63c ec4a 9ebd 480c 59bc 37a2 0b3b
00000250: 3345 873c 916f e2bd 7da3 8dbb 382b 8a3d
00000260: a517 0fbd eb9d b03d 144f 9cbd 5bba 1c3d
00000270: 1e8a 9c3c ea07 d0bd 9afa 2dbd c9aa d2bd
00000280: 2637 a13c f050 a2bd c16b f03c 6702 4b3d
00000290: 89ab b6bd bff8 f8bc 8b03 be3d 9c28 b2bd
000002a0: 1074 de3c e608 043c 8e93 d5bc cb56 323d
000002b0: 58b1 8a3b a8e5 9f3c d01a 47bd 99af 873d
000002c0: a956 81bd b297 f6bc f67c af3b d774 e2bd
000002d0: b08c 36bd d77a 81bd 593b b83c c088 9fbc
000002e0: 2523 db3d f6a8 61bd 70fa 4d3c f5f3 9a3d
000002f0: acaa 89bd 4724 aebd 9145 663d 23d4 febc
00000300: e733 b93d 94f7 3dbd 5e23 233e 9b86 bebc
00000310: 45b3 b33b fa34 c7bb 48ed 813d 22ef 703d
00000320: 3324 003e ee98 0c3d b1ba f73d 0d12 bb3d
00000330: c492 18be 890e 49bc b60b ae3d bd53 bd3d
00000340: 1768 1f3e 1464 a83d 9d73 323d 9d2b d0bc
00000350: ad50 1cbe 8fac 223d b547 053e 7e96 473d
00000360: 25b8 533d 5d2d 453e 66c1 a43d 200e 703c
00000370: 91c2 d23d d0e7 4e3e 247d 243d 04e7 073e
00000380: 32d9 f5bc ce18 1c3c c6e8 3d3d 2504 c8bb
00000390: 1b34 fa3d 49de c1bc 64e4 d03d dcce c83b
000003a0: ebaf 473d d549 b73d 7ead 3b3a 1c29 553d
000003b0: 3641 113e dced 973d 7889 a13d df79 5c3d
000003c0: 4f69 da3d 1e9a 76bc 98a5 743d 2686 9a3d
000003d0: dd81 aa3d ff58 853d a7a9 aa3d 0dd4 4a3e
000003e0: 656d 72bd 4984 9b3d f801 b73c 4e15 983a
000003f0: c625 583d 15a6 09bd 0072 123e d576 0e3d
0.020061942 0.032440536 0.106645696 0.008082438 0.030753579 0.02157405 -0.023892876 0.14905867
0.11475451 0.057044465 0.124360755 0.13995992 -0.1025991 -0.026962135 -0.10137948 0.04832027
0.16436188 0.09495418 0.06909166 0.053441416 -0.09312985 -0.0064407103 0.0686124 -0.04267826
0.092060104 0.20253976 0.08644065 0.044264246 0.06724545 0.20199636 -0.0074548936 0.1235476
0.03108004 0.016711818 0.18042588 -0.06446203 0.119958244 0.03502128 0.058598742 0.038677793
0.024342407 0.07936839 0.09333365 0.051711213 0.10355885 0.035403833 0.12928233 -0.0013362784
0.032400157 -0.006068558 0.095533386 0.1004245 0.027665045 0.10932301 0.06865748 0.108560964
-0.09886474 0.02862206 -0.014145201 -0.110674225 -0.036362316 -0.06606587 0.047492806 0.07347114
-0.22530349 0.02628762 -0.18187062 -0.18720244 -0.15553765 -0.22053736 -0.15002427 -0.2436099
-0.27420533 -0.20385742 -0.30644953 -0.23670906 -0.16839176 -0.18918885 -0.22392988 -0.26133522
-0.2921437 -0.23400272 -0.21668366 -0.062279053 -0.14497662 -0.14845122 -0.22508386 -0.20523527
-0.22190055 -0.3281483 -0.21314836 -0.1888465 -0.20789728 -0.2982501 -0.21178819 -0.2157464
-0.16320805 -0.17154086 -0.22712813 -0.13389543 -0.20688647 -0.111544564 -0.20205028 -0.20006949
-0.14749868 -0.16386335 -0.2304325 -0.2255259 -0.21924016 -0.12458817 -0.20969395 -0.23199733
-0.17939052 -0.20316736 -0.14484333 -0.16978852 -0.25168225 -0.25574422 -0.19374663 -0.21990538
-0.22871125 -0.24074861 -0.17095596 -0.2258586 -0.19034597 -0.22790729 -0.17267577 -0.17859228
0.11788258 0.0014330014 -0.06678115 0.08471435 0.056061987 0.037885547 0.048016198 -0.0119268745
0.038121674 -0.046262976 -0.016315438 0.013888492 0.016942339 0.045643255 0.05020368 0.04455198
0.026209341 -0.07729134 -0.013247557 0.0021306404 0.016512489 -0.11056436 -0.004322468 0.067465246
-0.03493466 0.086238705 -0.076322705 0.03826366 0.019108828 -0.101577595 -0.04247532 -0.10286481
0.019679617 -0.07925594 0.029348256 0.049562838 -0.089194365 -0.030392049 0.092780195 -0.08699152
0.027154952 0.008058762 -0.026071336 0.043539803 0.004232567 0.019518688 -0.048609555 0.066252895
-0.06315357 -0.03010163 0.0053554727 -0.11057442 -0.044567764 -0.06322258 0.022489237 -0.019474387
0.10700063 -0.055092774 0.012571916 0.07566062 -0.06722006 -0.08503013 0.056218687 -0.031107014
0.09043103 -0.046378687 0.1593146 -0.023257544 0.005484017 -0.0060793133 0.06344086 0.058821805
0.12513809 0.034325533 0.120961554 0.09134302 -0.14899737 -0.012271532 0.084983274 0.092444874
0.15567051 0.082222134 0.04356729 -0.025411421 -0.1526515 0.039715346 0.13015635 0.048727505
0.051689286 0.19255586 0.080447 0.014651805 0.10291017 0.20205617 0.040158406 0.13271719
-0.030010793 0.009527398 0.04636457 -0.0061040097 0.122169696 -0.023665564 0.10199812 0.006128175
0.048751753 0.08949629 0.0007159336 0.052041158 0.14185032 0.07418415 0.07887548 0.053827163
0.10664617 -0.015051393 0.059728235 0.07545118 0.08325551 0.06511115 0.0833314 0.19807453
-0.059186358 0.07593591 0.022339806 0.0011603029 0.0527704 -0.033605654 0.143013 0.034781296

lstm.weight_ih_l0_reverse f4 [256, 5]
00000000: e548 5abd 3064 8c3b 6ad7 3f3e d9a1 a4bd
00000010: 59c4 77bd a9c8 91bd 2438 2bbd 1c42 573e
00000020: 916f 3bbe 6886 9a3d 4327 323c 59b1 b43d
00000030: 829b 033e eb3a 03bd 1166 cbbc 9681 353c
00000040: 27bd 293d 721f c03d 5202 a6bd fb3a 80bd
00000050: 79e1 59bd a0c1 6f3d 6475 f8bc 24db f7bd
00000060: 46af af3d 7772 693b da74 5c3c defc 0a3e
00000070: 5290 1d3d a4dd 663d 9fe7 0abd b7a6 003e
00000080: 43a8 5e3d fa36 0f3d a735 0f3e 2dad 253b
00000090: 39db df3d 4652 2e3d 895e 623d add3 0f3e
000000a0: d2a6 6f3d b547 503d f538 983d 7586 1abe
000000b0: 826a d73c dbd7 42bd 6ba8 b13d 0ce2 e53d
000000c0: 92d8 933c 91ba 133e c3b6 acbd c3b4 203d
000000d0: 4179 323e c321 473d e7c0 b43c cfe0 d4bd
000000e0: 41a4 023d ed7d c03d f0ce 03bd 16bf 7e3d
000000f0: 16e5 2abc c7d3 aa3d 0f2c 083d 40c1 85bd
00000100: 7308 b93d 8451 533b 8ddd e63b 9523 513d
00000110: 5b72 69bd 78fa e13c c046 d83c c812 f53c
00000120: fc58 513d ad42 37be c55f bb3c ffbb 843d
00000130: f17c ba3d 1f1e 56bd e97c 8fbd 599b fd3c
00000140: be29 d03d 2fce 6b3d 047b a63d 8acd c33b
00000150: f78f 683d d093 06bd 9046 cc3d 01e4 e03d
00000160: 8236 ccbc 2fb6 253d f4ee aa3c 09ac b43d
00000170: 3d43 9c3b b6e3 fdbd af1a cf3d c6c2 febd
00000180: 0c0f d33d a6d0 433d 7953 13be 79f6 923c
00000190: bc63 adbd 2cf2 a83c 8dc7 283e 2622 92bd
000001a0: 6885 fcbc 5e42 993c 47b6 763d 9b74 803d
000001b0: 4997 c9bd 25ec eb3d 0b6b bf3c 1254 c03d
000001c0: 0996 c73d 7008 7f3c a0db ce3d 4311 f6bc
000001d0: ad31 63be db6d 1cbd cda3 123e 7e8a dfbd
000001e0: 106d 65b8 3440 75bd 0b32 f1bd 560e 4e3e
000001f0: f270 21be 00e9 603d 762a bd3d c7fd d83d
00000200: a33a 7fbc a79d af3c 4e76 c83d 86ef f83c
00000210: 13fc 0c3c 0c66 c2bc 7fbc 063e 0036 633d
00000220: ad43 f0bc 65cd 853d 846b 18bb 92e6 4d3d
00000230: d54a 49bd ed04 133b 66c1 573d d9e8 e5bd
00000240: f243 e73d 198e 46bd dc78 bd3d b295 293e
00000250: 898a 3ebd b689 83bc 5ec7 f43c 7593 fd3b
00000260: f9e5 d73d 5b97 86bd 31a3 3abd b648 21bd
00000270: da74 ad3d ce16 993d a841 fb3c 8d3b a93d
00000280: b388 733c 78ef b6bd f0c6 893d 76a3 49bd
00000290: ebe5 3f3e 306d 84bc 50eb c23d 42c3 653d
000002a0: 1bb2 7ebd 7832 ae3d d185 64bd 28bd a83d
000002b0: de45 163e f18d 7d3c 0d59 933d 1c10 9cbd
000002c0: 97c7 613b 65d4 433d 1997 e6bd 7798 183d
000002d0: d743 1d3d e390 0e3c 3e0f ce3d aed1 7a3c
000002e0: 606c 05bd 2cb0 bd3d 3d67 8cbc bb7e 143d
000002f0: b4b5 56bd cac6 81bd 69fe 48be 3a63 d4bd
00000300: 08a7 263e 8e64 33be 851e 11bc 9ed4 593c
00000310: 274a 6e3d 9d4e 8ebc c9d8 90bd cea3 b0bc
00000320: 855c 363d d25c 143e 4cd4 c03b 65c7 c43c
00000330: 36b4 583d 92ef abbd 3314 5d3d 9f08 1c3e
00000340: bb79 a3bd a88f 7e3d bcd1 30bd f8c2 153c
00000350: 57fa c33d d3af e53c db03 f23d 4bc2 9bbd
00000360: 1bc6 fa3d 77c7 d2ba f6c2 9bbc 64d3 163e
00000370: 3751 e0bc 5f5f bf3d b8b6 643d 3167 b9bd
00000380: ff8e 56bb aa32 a63c c433 27bc 9aba dd3d
00000390: 1255 cabd 999b 7abb 453c bd3d 95b6 acbd
000003a0: b58a bb3d 7e20 20bd b24c 30be d1cf 7f3c
000003b0: 94b3 9e3d 576f ce3d 72ad c13a 2f7d 9d3d
000003c0: 0629 fe3d 6a43 343d ca31 1d3e 10de 7bbd
000003d0: 0177 ec3d b0b6 aabc c1b1 8f3d eb73 fe3d
000003e0: 03b9 50bd 3213 47bd e23c 93bc 938c 75bc
000003f0: 1d17 3e3d f642 7abd 3b36 903c 8740 1ebc
-0.053292174 0.004284404 0.18734518 -0.080386825 -0.060489986 -0.07118351 -0.041801587 0.21021312
-0.18304278 0.07545167 0.010873619 0.08822889 0.1285229 -0.03203861 -0.024828942 0.011078259
0.041440155 0.09380998 -0.08105911 -0.0626125 -0.053193543 0.058534265 -0.030329414 -0.12102345
0.08578353 0.0035621205 0.013455594 0.13573024 0.038467713 0.056363717 -0.033912297 0.12563597
0.054359686 0.03496454 0.1398531 0.0025280223 0.10930485 0.04255893 0.055265937 0.14045592
0.0585087 0.050849635 0.07432739 -0.15090354 0.026295904 -0.047569137 0.08674701 0.11224756
0.018047605 0.14426638 -0.084332965 0.039234888 0.17429067 0.048616182 0.02206464 -0.10394441
0.031894926 0.093990184 -0.032179773 0.062193953 -0.010430595 0.083411746 0.033245143 -0.06531
0.09034815 0.0032244632 0.007045454 0.051059324 -0.056993823 0.027585253 0.026400924 0.029916182
0.051110253 -0.17896529 0.022872815 0.0648117 0.09105862 -0.05227482 -0.070062466 0.030957865
0.10164212 0.05756968 0.08128932 0.00597543 0.05677792 -0.03285581 0.09974396 0.10980988
-0.024928335 0.040456947 0.020865895 0.088218756 0.0047687576 -0.12396948 0.10112511 -0.12439494
0.10305604 0.047806405 -0.14387311 0.017939793 -0.084662884 0.020623289 0.16482373 -0.071354195
-0.030825332 0.018708404 0.060232427 0.06272241 -0.098433085 0.1151965 0.023366472 0.09391035
0.09745414 0.0155659765 0.10100484 -0.030037528 -0.22186919 -0.038190704 0.14320298 -0.10915087
-5.4699427e-05 -0.059875682 -0.11777123 0.20122656 -0.15765741 0.054909706 0.092366144 0.10595279
-0.015577945 0.02143748 0.0978819 0.030387651 0.008605021 -0.0237303 0.13157843 0.05547142
-0.029329145 0.065333165 -0.0023257444 0.050268717 -0.04914363 0.0022433356 0.052674673 -0.11226053
0.112922564 -0.04847536 0.09251568 0.1656101 -0.046518836 -0.016056877 0.029880222 0.0077385255
0.10541911 -0.065718375 -0.045565788 -0.039375983 0.08469553 0.07475053 0.030670956 0.082633115
0.014864135 -0.08932394 0.067273974 -0.049228154 0.1874005 -0.016165346 0.095175385 0.056094415
-0.062181573 0.0850572 -0.05579168 0.08239204 0.1467509 0.015475736 0.071947195 -0.0762026
0.003445124 0.047809977 -0.11259288 0.037254777 0.038394775 0.008701536 0.10061501 0.015308781
-0.032574058 0.09262118 -0.017139072 0.036253672 -0.05241938 -0.06336744 -0.196283 -0.103704885
0.16274655 -0.17518827 -0.008857374 0.013295321 0.058176186 -0.01737147 -0.070725985 -0.021562483
0.044521827 0.14488533 0.0058846828 0.02402086 0.052906238 -0.08395304 0.05397434 0.15237664
-0.079822026 0.06214872 -0.04316877 0.009140722 0.09569233 0.028037941 0.118171416 -0.07605418
0.12244817 -0.0016081174 -0.019013863 0.14729077 -0.027382476 0.093443625 0.055838317 -0.09052885
-0.003273904 0.02028783 -0.010205213 0.10826607 -0.09879507 -0.0038239716 0.09240011 -0.08433262
0.09157316 -0.039093487 -0.17216757 0.015613512 0.077490956 0.1007983 0.0014776422 0.076898925
0.12410168 0.044009604 0.15351024 -0.061491072 0.11546136 -0.020839065 0.07016326 0.12424453
-0.05095769 -0.04860229 -0.017973367 -0.014987129 0.04640876 -0.061099015 0.017603984 -0.009658939

lstm.weight_hh_l0_reverse f4 [256, 64]
00000000: cf59 e73a f164 093a c066 863a dde6 3b3a
00000010: 901e a63b 6fd4 bf39 0724 173b 2514 2c3b
00000020: 5f3e 3dbb 56d9 3cbb 1030 d2ba d252 9139
00000030: 3d11 2c3b 187f 7f3b 1e05 acb9 d623 d3ba
00000040: d966 deb9 12a3 b2ba 789b c3ba 29c7 603b
00000050: f6c6 903b b052 78b9 124a 8bba 08da 67bb
00000060: aeda 8bbb d9bb 463b a5dc b23a e794 ad3a
00000070: 59e1 853b 993c 3bbb deb8 39ba d1d8 9739
00000080: 8450 6cbb cb38 a93a 24a2 1bbb 1f59 003b
00000090: cc42 7bba 5fb6 b73a 0702 543b a77a 58ba
000000a0: d7e2 58b9 f884 5f3a b64b 7abb 622d bcba
000000b0: c5bb 62ba 951d a13a 2c4b 3339 b491 f3ba
000000c0: c4bf 823b 79f2 72ba a04c e7b7 66c0 7738
000000d0: 80dc b0bb 192f f03a 6949 0cbb 3c40 0f3b
000000e0: 9368 5b3b 1c39 42bb fe5a 6cbb a1db 273b
000000f0: bb8c eb3a 3021 513a e7ba ef3a b6e6 253b
00000100: c262 12bc 8f6c 0e3c ee1e 03bb 0f3b a5ba
00000110: c143 25bc ebec 6fba 6dc4 96bc 6c67 3bbc
00000120: 6104 83ba ccd5 19bc 98bf ef3b 74f2 c8bb
00000130: 4278 9ebb 0582 2c3b 7140 203c a80d f83b
00000140: 3ed2 663c dfa7 b73b 58e0 29bc 3f87 edbb
00000150: 7618 bfbb 4585 33ba c3bb febb b073 76bb
00000160: 7673 00bb 630c 8cbb cfca 04bc 9830 3fbc
00000170: 228e 10bc 608f 2e3c 6f67 c23b 8e7a 9bba
00000180: b6de 843b 3c89 32bc 946b 6538 5e43 0abc
00000190: b0cb 373b b70c caba 1d0a c9bb e280 ccbb
000001a0: 5f0e b53b a76f 873b e4ca a2bb e515 313c
000001b0: 3982 1cbc 5cb9 2ebb de42 c9bb b1a3 533b
000001c0: 6e20 a13c 4453 5b3c 79be e8bb 7bb1 143c
000001d0: a904 99bc 0a66 2e3c 387f 973b b6bd eebb
000001e0: 4918 793b d378 463c c2a6 3d3c 2013 a73b
000001f0: c2c3 713b 5eff 353c 147e 3fbc 2417 01bc
00000200: 2a81 21ba 2038 fcba d2f6 8dba de31 adbb
00000210: 1e77 1cbb 6752 e0bb 9cf5 3dba 6e55 a3bb
00000220: f69a 0b39 a299 bfbb 0f91 ce3a 1dc7 04bc
00000230: 1883 cbb9 c075 4cba 4daf 913a 19d5 d03a
00000240: 8ea7 253b 098f 8fbb 184a e2bb a4cd 08ba
00000250: f297 5fbb 905b a8bb 206f 703b d1d6 b33b
00000260: f057 beba 9a7e 99bb 11e5 11bb d582 a8bb
00000270: 26c5 d1ba e974 223b 129f d439 8fa5 d03b
00000280: 6479 533b 686a 62ba 9374 c4ba b545 03bb
00000290: f894 d13b fbc0 cbbb bd9d 343b f8b7 2eb9
000002a0: 5dd0 183b 2249 c0bb 5431 7bba df21 5e3b
000002b0: d6ab 7ebb 8658 cc3b 032d 733b 9395 273b
000002c0: 1688 a33b a754 b938 bc1e 943a 1d33 8cbb
000002d0: 2050 f3b9 890c a638 2f89 773a 66b3 d2ba
000002e0: fe32 873a c668 903a 412a 813b 769a bdbb
000002f0: d816 6fb9 189d 613b 199d bfbb dcd9 18bb
00000300: 8f4c 973c 9b80 1fbc 1a8a 823c 0378 86bc
00000310: 08a2 063c 518b ccbb ce01 063c b1ce 213c
00000320: 9266 aabb 7717 8b3b 9a0b 95bc 30d0 56bc
00000330: 7d7d 593c 0904 9dbb 04f9 9fbc a800 92bc
00000340: f16e 5abc 3191 c3ba 6612 76bb 1ccb 803c
00000350: ee27 1b3c d792 90bc 7fde aa3c aeef 8e3c
00000360: 54c2 663b 2053 563b f4b8 803c 8831 2f3b
00000370: c43f dcbb 7795 2fbc fb0f eb3b 1bdc bf3c
00000380: 9563 133c 1f47 383c 9183 24bc 8667 883c
00000390: add0 ec3b c7f4 1abb a3f3 323c 208c 613b
000003a0: 0f2e 91bc 5990 8abc 017c 453c 65c0 f6bb
000003b0: 248f febb 689a 113c f72d 07bb e757 82bc
000003c0: 55b3 8e3b 245a 1cbc 76d4 f93b b5e8 0bbc
000003d0: 42cf 48bc 88e1 2bbc a7bb 27bc a999 a63c
000003e0: da91 27bc f28b 84bc 8f55 3f3b 3d87 27bc
000003f0: 8054 8abc c6fa 0abb a070 bcbb 70f8 6a3c
0.0017650666 0.00052411767 0.001025401 0.0007167885 0.0050695613 0.00036588634 0.0023062245 0.0026257124
-0.0028876287 -0.0028816066 -0.0016036052 0.0002771826 0.0026255392 0.0038985666 -0.0003281021 -0.0016108702
-0.00042419767 -0.0013628921 -0.0014923653 0.0034298396 0.0044182492 -0.00023681927 -0.0010626933 -0.003537776
-0.004268012 0.0030324368 0.001364608 0.0013243229 0.0040857014 -0.0028570055 -0.00070847373 0.00028962505
-0.0036058733 0.0012910602 -0.0023747766 0.001958437 -0.00095848436 0.0014016143 0.0032349841 -0.0008258023
-0.0002068387 0.0008526589 -0.00381921 -0.0014356787 -0.00086491957 0.0012292141 0.00017098774 -0.0018582852
0.0039901454 -0.00092676986 -2.7573027e-05 5.9068574e-05 -0.0053973794 0.0018324583 -0.002140606 0.0021858355
0.003347908 -0.002963609 -0.0036064978 0.0025613087 0.0017971018 0.00079776626 0.0018289954 0.0025314516
-0.0089346785 0.008692875 -0.002000745 -0.0012606102 -0.010086955 -0.000915243 -0.01840421 -0.011438232
-0.0009995812 -0.009389352 0.007316541 -0.0061324183 -0.004836113 0.0026322615 0.009780989 0.0075699873
0.014088212 0.0056047286 -0.010368429 -0.0072487886 -0.0058317734 -0.0006848167 -0.007773848 -0.0037605576
-0.001960007 -0.0042739375 -0.008104994 -0.0116693005 -0.00882295 0.0106543 0.0059327404 -0.0011862086
0.0040548695 -0.010896977 5.4698045e-05 -0.008438913 0.0028044991 -0.0015415166 -0.006135239 -0.00624095
0.005525395 0.004133183 -0.004968034 0.010808443 -0.009552532 -0.0026660776 -0.0061420044 0.0032293613
0.019668784 0.013386551 -0.0071027842 0.009075518 -0.01867898 0.010644445 0.00462332 -0.007285799
0.003800886 0.012113768 0.011575403 0.0050987154 0.0036890362 0.011108248 -0.011687774 -0.007879052
-0.00061609095 -0.0019242801 -0.0010831004 -0.0052854856 -0.002387471 -0.0068457606 -0.00072463765 -0.0049845492
0.000133138 -0.005847172 0.0015759784 -0.008104113 -0.0003881685 -0.00077995285 0.0011114866 0.0015932649
0.0025276872 -0.004381065 -0.0069058053 -0.0005218631 -0.0034117666 -0.005137868 0.003668733 0.0054882546
-0.0014522057 -0.0046842815 -0.0022261778 -0.0051425495 -0.0016004189 0.0024788922 0.00040554308 0.0063673924
0.00322684 -0.00086370716 -0.0014988355 -0.0020030562 0.0063959323 -0.0062180734 0.002755984 -0.00016662467
0.0023317554 -0.005868093 -0.00095822406 0.00338947 -0.0038859746 0.0062361388 0.0037105686 0.002557133
0.004990588 8.837255e-05 0.0011300663 -0.004278554 -0.0004640827 7.917832e-05 0.0009442744 -0.0016075193
0.001031488 0.0011017553 0.0039418046 -0.0057862354 -0.00022801326 0.003442591 -0.005847585 -0.0023323214
0.018469123 -0.009735252 0.015934993 -0.016414648 0.008217342 -0.0062421937 0.008179141 0.009875939
-0.0052002156 0.0042447406 -0.018194009 -0.013111159 0.013274548 -0.004791741 -0.01952792 -0.017822579
-0.013332115 -0.001492059 -0.0037547587 0.01572185 0.009469969 -0.017648144 0.020858048 0.017448273
0.0035211043 0.0032703355 0.015713193 0.0026732404 -0.0067214686 -0.010716788 0.007173536 0.023420384
0.00899591 0.011247425 -0.0100411335 0.016650926 0.0072270245 -0.0023644434 0.010922345 0.0034415796
-0.017722158 -0.016914533 0.012053491 -0.0075302594 -0.0077685285 0.008886911 -0.0020626762 -0.015911056
0.004354874 -0.009542976 0.0076242043 -0.008539368 -0.012256445 -0.010490783 -0.010237611 0.020336943
-0.010227645 -0.016180012 0.0029195284 -0.010225114 -0.016885996 -0.0021206602 -0.0057507306 0.014341459

lstm.bias_ih_l0_reverse f4 [256]
00000000: c32a a93d b736 dd3c 88f6 9c3d 4210 603d
00000010: 6260 973b c9dd 713d 0c45 7e3d 58f9 833c
00000020: 5582 713d 5d43 ca3c 3447 983d e052 053e
00000030: 92da 67bc 2848 163e a904 91bc 5c9a 503d
00000040: aed8 92bc 8068 6d3d 0e6e 0a3d 7f81 a13d
00000050: 4aac 09bd 8a2c 2d3d afdf 083e 99df 4b3e
00000060: 9dc3 683e 4f84 f23d b8ee a53d 052a ab3d
00000070: cf60 253e 8a45 4dbd 897f 883e beae 8a3d
00000080: 622f 863d afe9 a0bc 67ed d83d f486 943d
00000090: 1544 003e 9be3 663e 310e 713d d703 833e
000000a0: 7b6b 233d 493f ed3d 7904 cc3d ea73 d2bc
000000b0: 0784 6cbb 9114 fc3d 475f c83d 7041 503c
000000c0: 8356 7f3c 4988 cf3d 971a 193e ac00 0e3c
000000d0: 80f7 2e3d b395 70bc 3585 093e 40ae 853d
000000e0: 70ea 373e e264 133e 4a2b 343e 0758 3a3d
000000f0: 9515 f8bc 16ba c03d 073d ef3c 0e53 9bbd
00000100: 569f b73c c2b3 aa3d d8bf faba 018c 773d
00000110: 7465 ec3c 6e94 a53d 9121 343d 8cf1 473d
00000120: f482 7b3d c899 ad3d 425d 94bb 14e0 0b3e
00000130: d869 3539 9303 773d 070d c83c 72b5 cf3a
00000140: 7a95 6fba 6709 883d ca56 ca3d 0633 ab3c
00000150: 3dbb f93d 8764 833d d262 aa3d b3aa b23d
00000160: 5577 c03c 562a be3d d6a9 ee3b 172a 8c3d
00000170: 87bd 3c3e cf94 d33c 5b87 273e e7d7 973d
00000180: 828f 1e3e bcb2 b93c fa3e dc3c 98c1 81b9
00000190: 1902 e23d a3b3 393e c9f4 6b3d 1615 503e
000001a0: 0ee2 303d bcbb 223e 8ac0 fa3d aeb7 b23c
000001b0: 659e f73d 5517 a03d 52b7 c13d 996c 023c
000001c0: cd9f 823d 40ff 543d 2cc6 0f3d e616 823d
000001d0: fac1 683d b263 923d 2cd2 0a3d b885 f23b
000001e0: 1010 423e b3de a73c ba45 fe3d c488 233e
000001f0: dfaa 5a3d 4709 ff3d c178 113e f05c 8f3c
00000200: c087 8ebd c7d5 5a3d 5b02 1bbb 37e4 e03b
00000210: ab28 13bd 38e1 0a3c 4a8f b03b 578f 35bd
00000220: 9349 16bd f0a4 38bb f1fb e23c ed91 c7bc
00000230: 6e62 3f3d c8e6 623d f4d9 99bd 5f51 f83c
00000240: e4ee 2f3d 8b57 563d c438 d939 3b7c c23c
00000250: 9e17 42bd 4444 7fbd 4854 b73d e3bb 3abd
00000260: f50f 723b b09f 93bd d442 4abd 80fc 3bbd
00000270: 7410 9cbd aa6b 0cbd c235 71bc a67d 94bc
00000280: a3a8 5b3d 88f5 bf3d e613 50bd a2be 233c
00000290: a820 16bd 8d27 14bd 36b2 4bbd fb63 673b
000002a0: 0f91 d9bc c6b9 bf3d 345c ec3c efe2 75bc
000002b0: 0418 d53b c8a5 e03c ba29 cebc 6086 23bd
000002c0: b38b 0bbe e9d4 903c 4628 4e3d 4e1d 90bd
000002d0: d7cc d93d bbd4 2abd 29cc a6bd 41ee a2bb
000002e0: a1d2 dbbc faa4 82bd 6fd6 ba3c 6497 ff3d
000002f0: 56a9 2abd 0c3d f33d 6f13 90bd 3618 1f3c
00000300: 7c81 af3c c65a e13d 93e9 b03d e849 453e
00000310: 3755 1a3e 9ab6 3d3e 4f77 e43d 58a9 8a3d
00000320: ff2b 293e f307 a03d 2abb 2c3e c4cb 443e
00000330: 2a2e 43bd 0031 043e 3ce7 f4bc 2bc6 65b9
00000340: dc56 a33d ccd4 283d 645c 3e3d a489 583d
00000350: 7b56 243d b57a 823b a347 053e f620 373e
00000360: afda 6d3e 5ea0 e73d d080 5f3d af24 6fbb
00000370: 17c0 303e 6621 5cbd 3368 b93e 006b 483e
00000380: 45df 0e3e 44b8 a8bd de1c ca3c 72cd ca3d
00000390: ef7b 1c3e d4b0 a23e 9a48 3d3d a583 893e
000003a0: edbd e83d 5607 103e ee79 c33d acf2 55bd
000003b0: 25d7 dc3d 6e2a 613e 681c 1b3e a5de d73d
000003c0: 80d5 033e 0d3c 973a 9b0e 543d 5e2b cebb
000003d0: 6fab ca3d efcc b53d c192 d63d 2ac7 d4bb
000003e0: 3167 873e acce 053e 6c5e 843d 4393 343e
000003f0: bb84 f43d a9dc 053e 93a6 353e 413d 4b3d
0.08260109 0.02700363 0.076642096 0.054703005 0.004619644 0.0590494 0.062077567 0.016110107
0.058962185 0.024690324 0.07435456 0.13019896 -0.014151232 0.14675963 -0.017702417 0.05092846
-0.017925587 0.057960987 0.033796363 0.078860275 -0.033611573 0.042278804 0.13366579 0.19909514
0.2273087 0.11841642 0.081021726 0.08357624 0.16150211 -0.050115146 0.26659802 0.06771611
0.06552006 -0.019642679 0.10592156 0.07252303 0.12525971 0.22547762 0.058851425 0.25588867
0.039897423 0.11584336 0.099617906 -0.025690038 -0.0036089437 0.1230861 0.09783798 0.012710914
0.015584591 0.10133416 0.1495155 0.008667152 0.042716503 -0.014684129 0.1342972 0.06527376
0.17960525 0.14393952 0.17594638 0.045494106 -0.030283729 0.09410493 0.029203905 -0.07584201
0.022414844 0.08335067 -0.001913066 0.060436253 0.02885697 0.08084951 0.043977324 0.04881434
0.061404184 0.08476597 -0.0045277188 0.13659698 0.00017300935 0.060306143 0.024420274 0.0015846922
-0.00091394 0.06642418 0.09879835 0.020898353 0.12193916 0.064156584 0.0831963 0.087239645
0.023494402 0.09285419 0.0072834296 0.068439655 0.18431674 0.025827793 0.16360228 0.07414227
0.15484431 0.022668235 0.026885498 -0.00024749036 0.11035556 0.18134932 0.057606492 0.20320544
0.043184333 0.15891927 0.12243755 0.0218161 0.12090758 0.0781695 0.09458794 0.007960462
0.06378136 0.052001238 0.0351011 0.06352024 0.056825615 0.071479216 0.03389184 0.0074011944
0.1895144 0.020491933 0.12415643 0.1597014 0.05338561 0.124529414 0.1420622 0.01750037
-0.06959486 0.05342653 -0.0023652527 0.006863143 -0.035927456 0.008476548 0.005388175 -0.044326153
-0.03669126 -0.0028174482 0.027708026 -0.024361575 0.04672473 0.05539587 -0.075122744 0.030312238
0.042952433 0.05232958 0.0004143176 0.023740878 -0.047385804 -0.062320963 0.08951622 -0.04558934
0.003693578 -0.07208192 -0.04938014 -0.0458951 -0.07620326 -0.034282364 -0.0147222895 -0.01812632
0.05362762 0.09373003 -0.050800227 0.009994181 -0.036652237 -0.03617053 -0.049730502 0.0035307396
-0.026558427 0.09361605 0.02885256 -0.0150077185 0.006503107 0.0274228 -0.025166381 -0.03992307
-0.1362751 0.017679648 0.050331376 -0.070368394 0.10634773 -0.04170678 -0.08144409 -0.0049722497
-0.026833834 -0.06379123 0.022807328 0.12480047 -0.041665398 0.11876878 -0.07034957 0.009710362
0.021424048 0.11003642 0.08638301 0.19266474 0.1507157 0.18526688 0.11155569 0.06770581
0.1652069 0.07814016 0.16868272 0.19218355 -0.047651447 0.12909317 -0.029895417 -0.00021912965
0.079755515 0.041218564 0.04647483 0.05286564 0.040121537 0.003981913 0.13015608 0.17883667
0.23227952 0.113098845 0.054566205 -0.003649037 0.17260776 -0.05374279 0.3621231 0.19572067
0.13952358 -0.08238271 0.024671968 0.09902467 0.15281652 0.31775534 0.046211816 0.2685825
0.113643505 0.14065298 0.095447406 -0.052233383 0.10783223 0.21988842 0.15147555 0.10540513
0.12874413 0.0011538282 0.05177174 -0.006291791 0.098959796 0.088769786 0.1047721 -0.006493469
0.26445916 0.1306712 0.06463322 0.17634301 0.11939379 0.13072456 0.17739324 0.049618963
